model/attention_model_weights.pth (torch, 84537 bytes, 13 tensors)

attention.0.weight f4 [128, 6]
000000 fb 4f b6 3d c6 74 28 bd 73 56 5c 3e bf e4 29 3e
       0.08901974 -0.04112699 0.21517353 0.16591166
000010 1d a6 a6 bb 3a 59 61 bd 90 c6 da bd 0b e0 64 bd
       -0.00508572 -0.055016734 -0.10682404 -0.055877727
000020 8d 43 90 be a5 ec 16 be 1e 7d ff bd f5 d0 19 be
       -0.28176537 -0.1473871 -0.12475036 -0.15021117
000030 10 47 6b be 0d 2e 3d 3e c0 fb 84 3e 9e 36 21 be
       -0.22976327 0.18474598 0.2597332 -0.15743491
000040 4e 08 a1 3e 54 15 89 be be 7b a6 3e 2a 3b 36 3e
       0.31451648 -0.26774085 0.32516283 0.17796007
000050 a8 4d f3 bd cf 56 78 3e 8f 18 91 be 76 6a a8 3e
       -0.11880046 0.24251865 -0.2833905 0.32893723
000060 d5 d9 1f 3e 4e 7d 75 3d 75 09 93 bd b9 e5 60 be
       0.1561044 0.059933953 -0.07179538 -0.21962632
000070 41 8c 08 3d 5b b4 56 3e 84 8e 47 3e 5b 1a 6b 3e
       0.03333688 0.20967238 0.19487959 0.22959273
000080 ba 45 88 3e 8e 29 d9 bd f3 03 aa 3e 04 41 ae be
       0.26615697 -0.10603629 0.33206138 -0.34033978
000090 0c ae bc 3d a7 81 b4 be 6b c4 a9 be 24 1f ba be
       0.09212884 -0.35255167 -0.33157668 -0.36351883
0000a0 0d 46 0d be ca 41 bd 3c fd 28 e7 bd 9c 98 be bc
       -0.13796254 0.02310266 -0.11287115 -0.02326613
0000b0 83 e8 80 be 08 92 f2 bd ad 72 b2 3e f8 5e 32 3d
       -0.25177392 -0.118442595 0.34853116 0.0435476
0000c0 bb 11 e8 3c 2a 36 58 be 0a fe 5d be be 33 30 be
       0.028328767 -0.21114412 -0.2167894 -0.17207238
0000d0 b2 52 96 bd c5 64 e3 bd f7 87 3b bd 1a 71 64 3e
       -0.07339992 -0.11103205 -0.045783963 0.2230877
0000e0 5a a0 f1 bd b2 69 93 be 2a 53 46 bd 65 27 b1 3d
       -0.11798163 -0.28791577 -0.048419155 0.08650092
0000f0 91 f2 45 3e 27 f8 95 be 81 e8 7c 3e 53 14 d6 be
       0.19330813 -0.29290888 0.24698068 -0.4181238
000100 73 9d 97 be 5c 9d 0f be e8 bd 92 bd 4a 4d 33 3e
       -0.29612312 -0.14024872 -0.07165128 0.17509952
000110 36 f5 25 3e 2a 13 ce 3e 37 6f a6 3e 43 07 b2 be
       0.16206822 0.40248996 0.32506725 -0.34771165
000120 b8 6a 59 3d 31 27 7e bd c2 81 77 3d 7f dc 67 3e
       0.05308029 -0.062049095 0.06042648 0.22642706
000130 94 c0 b8 be 8f dd ec bd fd 3a 01 be cb c6 05 3e
       -0.36084425 -0.115656964 -0.12620158 0.13064115
000140 1e b4 7a bd ed 92 5a be 76 57 9b be 4f 3a 74 be
       -0.06120693 -0.2134511 -0.30340165 -0.23850368
000150 7f 03 97 3e ed e7 4e be c2 7b 00 be c9 04 ad be
       0.29494855 -0.2020566 -0.1254721 -0.33792713
000160 f9 25 16 3e fc 5c 93 3d 8b 9c af 3e af f4 37 be
       0.14662923 0.0719547 0.3429912 -0.17964433
000170 cf cf 5a 3d 9a 3f 69 be be 9e a8 3d 83 7c 4a be
       0.053420838 -0.22778168 0.08233403 -0.1977406
000180 82 aa d4 3d e5 1b 65 3e 2a f1 02 be 0a 2f 9b 3d
       0.10384084 0.22373922 -0.1278731 0.07577331
000190 7e 40 bb bd a0 f5 d7 3e 9d 9f 86 3c a8 a6 d4 bd
       -0.0914316 0.42179585 0.016433531 -0.1038335
0001a0 19 ce 01 3e 57 c8 71 3e b8 61 a9 be d2 a0 92 3c
       0.12676276 0.2361158 -0.33082366 0.01789895
0001b0 46 3c 26 3d 4b 12 01 3e d7 16 a7 be 97 fd 50 3e
       0.040584825 0.12604634 -0.32634613 0.20409237
0001c0 77 34 b0 be 43 41 86 be 32 8d b2 be 83 ac 2f bd
       -0.34415027 -0.26221666 -0.34873348 -0.04288913
0001d0 87 d4 2f 3d ee 12 b1 3e f6 16 50 be 51 9a 21 3e
       0.04292729 0.34584755 -0.20321259 0.15781523
0001e0 57 c5 46 3c 47 ad 1e 3e 41 49 93 bd e3 3e c6 be
       0.01213201 0.15495788 -0.071917064 -0.38719854
0001f0 92 57 97 3d 72 37 70 3e 00 c1 7d 3e 39 1a ef 3d
       0.073897496 0.2345865 0.24780655 0.116749234
000200 76 21 be 3e 4d 38 98 be 50 bf c6 3c 36 7d 6f 3b
       0.37134904 -0.29730454 0.024261147 0.0036543137
000210 23 67 57 bd f3 0a 71 3e 5f 91 9f 3d ac 79 7d 3a
       -0.052588593 0.23539333 0.07791399 0.00096693146
000220 83 ab 74 3e 86 4c d4 be 10 ad 01 bf 5e 10 70 bd
       0.23893552 -0.41464633 -0.506547 -0.05860936
000230 0d 9a 9f be c3 c8 8f be c6 86 a4 3d 6b e0 92 3b
       -0.3117222 -0.28082857 0.080335185 0.004482319
000240 0e 00 5d be ea 8a 00 3e d3 b6 f7 3d 0f 40 21 be
       -0.21582052 0.12552992 0.12095418 -0.15747093
000250 ce cc 5f be 07 34 a3 3e 41 09 83 3e cb ad 82 be
       -0.2185547 0.3187563 0.25592998 -0.2552322
000260 61 6b 29 be 22 f7 91 be d0 92 8e be 96 87 47 be
       -0.16544868 -0.2850886 -0.27846384 -0.19485316
000270 e6 64 71 ba 31 06 89 3e 1c 9c 70 be f3 15 d5 bd
       -0.00092084554 0.26762536 -0.23497051 -0.10404577
000280 e3 02 95 be 70 58 9a be ee f4 d8 3d 3c a8 61 be
       -0.29103765 -0.30145597 0.10593592 -0.22036833
000290 c4 32 4f 3e 3f 28 1a be ba e8 90 bd 74 f9 ee 3d
       0.2023421 -0.15054415 -0.07075639 0.11668673
0002a0 a5 1c 1e 3e 9e 89 5a be e7 18 9e 3e b5 ec fc 3d
       0.15440615 -0.2134156 0.30878374 0.12349836
0002b0 17 74 68 bd 1e 8c 10 be c5 a8 1b 3e 5d 9b a3 be
       -0.056751337 -0.1411595 0.15201099 -0.3195447
0002c0 94 25 16 3e 1e 6b 34 3e 3f e2 3a 3e ec 21 e3 bd
       0.14662772 0.17618987 0.18250369 -0.110904545
0002d0 94 b5 70 be 70 d9 de bb c8 61 cb 3e 01 3f 0e be
       -0.23506767 -0.006800823 0.3972304 -0.13891222
0002e0 51 80 6e 3e 9e ac 05 3d 85 a7 89 be 26 f4 ed 3d
       0.23291136 0.032635324 -0.2688562 0.11618833
0002f0 a3 0f f0 bd ec 97 50 be 87 ef c5 bd 2d aa a1 bc
       -0.117217325 -0.20370454 -0.09664827 -0.019734466
000300 6e e0 d1 be 3d b8 c7 be 7b f6 8d 3e 35 51 73 3e
       -0.4099154 -0.3900775 0.27727112 0.23761447
000310 b6 f9 d3 3d e0 58 90 3e fe 2f cb 3d 38 b0 7f be
       0.10350363 0.28192806 0.09921263 -0.24969566
000320 4d a5 94 bc fa 7a 43 3e af 81 12 bd 20 11 86 be
       -0.018145228 0.1908988 -0.035768207 -0.2618494
000330 76 9a d2 3e 91 8e 84 bd 6f 7b a2 3e 32 ac ae be
       0.4113347 -0.06472505 0.31734797 -0.3411575
000340 91 6b fe 3d e4 4b 8c 3e ee 90 9f 3d a5 51 dd 3e
       0.124228604 0.2740165 0.07791315 0.43226352
000350 ff 58 b9 be 3b f2 a5 bd a5 f6 3c be b4 56 a6 be
       -0.3620071 -0.081028424 -0.18453462 -0.32488024
000360 72 7a 81 be 6f 2b c4 3e dc 33 65 3e be 91 aa bd
       -0.2528873 0.38314387 0.22383064 -0.08328579
000370 3b 0d 5f 3d 39 d9 c9 be 12 c6 84 3e 48 2e b8 3e
       0.054455977 -0.3942354 0.25932366 0.3597281
000380 60 64 aa bd ab f7 1e 3e 8b 32 b2 3d 4c ed b5 be
       -0.08319926 0.15524165 0.087010466 -0.35532606
000390 7a 65 6c 3e d4 38 c9 be e6 4c f8 bd be d6 bc 3a
       0.23085585 -0.3930117 -0.12124042 0.001440726
0003a0 59 7a ab bd 86 e2 62 be ac ec 2e be cd 4c 7b 3e
       -0.08372945 -0.22156724 -0.1708247 0.24541016
0003b0 3f f1 30 be 09 e3 9f bd 8d be 22 be 5f 68 4d 3e
       -0.17279528 -0.078069754 -0.15893002 0.20059346
0003c0 d9 a3 e7 3d ca 49 8d 3e 58 5f bc bd 78 e0 82 be
       0.11310548 0.2759536 -0.09197873 -0.2556188
0003d0 79 ab 15 3c 9b 95 da bd ff ca 0c bb e1 74 e3 bc
       0.009135121 -0.10673066 -0.00214833 -0.027765693
0003e0 aa fe aa be 99 ca 2a 3d 07 9c 21 be 77 8b d4 3e
       -0.33397418 0.04169712 -0.15782176 0.41512653
0003f0 24 ee b7 bd 32 f6 84 3d c3 16 a0 3e df 32 77 bd
       -0.089809686 0.064922705 0.31267366 -0.06035125

attention.0.bias f4 [128]
000000 1c 3e 16 3e 20 e7 99 be d6 c6 49 be 72 a7 7c be
       0.1467213 -0.30059147 -0.19704756 -0.2467325
000010 0f ec 58 3e c2 a3 c1 3d 1e 5d 15 3e 6a cc 26 be
       0.21183799 0.094550624 0.14586303 -0.16288915
000020 9b 02 a6 be 89 6f 29 be f1 3d a0 bd df 43 95 3e
       -0.32423863 -0.16546454 -0.078243144 0.29153344
000030 39 ef aa 3e 20 0a 0b be cc c0 37 3e 0f 5e 12 3e
       0.33385637 -0.13578081 0.1794464 0.14293693
000040 44 c7 d6 bd b4 96 37 3e 18 47 b6 3e df 34 43 be
       -0.10487226 0.17928582 0.35601115 -0.19063137
000050 35 66 f0 bd 63 d9 50 3e 66 1b 5c 3e f7 d4 e6 bd
       -0.117382444 0.20395426 0.21494827 -0.112710886
000060 62 b4 83 be b0 cd 90 be cf c5 f2 3d ea fc e5 3d
       -0.2572356 -0.28281927 0.11854135 0.1122988
000070 bc 9c fe bd a9 57 af 3d 70 d5 f1 3d f1 ed 40 bd
       -0.124322385 0.08561642 0.11808288 -0.04710192
000080 45 98 4c be 15 e3 20 be b5 31 90 bd a0 a6 b1 bb
       -0.19979961 -0.15711625 -0.07040731 -0.0054214746
000090 38 97 21 3e e7 25 8a 3e 79 a8 ee 3d d9 66 1a be
       0.15780342 0.26982042 0.11653227 -0.15078296
0000a0 09 51 d5 be ab 72 c2 be 6a 57 2f bd 14 ed 8d bd
       -0.41663387 -0.3797811 -0.042807974 -0.06929985
0000b0 f5 87 d8 be 1b ac 99 be ff b2 cd 3e 45 d9 be 3e
       -0.42291227 -0.3001412 0.40175626 0.37275138
0000c0 4e bb 71 3e 01 1f 22 3e 3c 1e 8a 3e 56 ad b1 3e
       0.23606607 0.1583214 0.26976192 0.34702557
0000d0 45 91 9a 3e 0d f7 ec 3d 24 86 b9 be 23 71 88 be
       0.30188957 0.11570559 -0.36235154 -0.26648816
0000e0 36 d5 b1 3e a1 cb 71 3d fd 9c 56 bd e0 c2 86 3d
       0.3473298 0.059032086 -0.05239581 0.06580138
0000f0 77 59 29 be 1c cd a0 be 39 bd a5 be de 78 26 3c
       -0.16538034 -0.31406486 -0.32370928 0.010160653
000100 47 43 0a be b8 9d 96 bb 8a 5d 85 3c 60 5e ba bd
       -0.13502227 -0.0045964383 0.016279954 -0.09100032
000110 f7 80 73 3d 1a 66 a8 be ce bb 8a be 23 e1 85 be
       0.059449162 -0.32890397 -0.2709641 -0.26148328
000120 59 80 9c 3d e3 00 9d be 81 60 a7 be 58 d6 89 3c
       0.07641668 -0.3066474 -0.32690814 0.01682584
000130 36 74 7a 3e 0b 35 3b 3e c8 db 1e 3e a6 4e 83 3e
       0.24458393 0.18281953 0.15513527 0.25645941
000140 1b c6 1b 3e e3 58 9f 3e 7c 85 d4 bd 0a fd 51 3d
       0.1521229 0.31122503 -0.103770226 0.051266707
000150 6a f2 8c bc 84 6c 80 be 40 5e ac 3d 3e 04 f6 bc
       -0.017205436 -0.2508279 0.08416414 -0.03003132
000160 b4 f6 a5 bc ca 60 2a be 73 c7 14 3e 1b 51 99 be
       -0.020259239 -0.16638485 0.14529209 -0.2994469
000170 2a 82 88 be d1 02 3c be e2 97 3d 3e 66 49 0e be
       -0.26661807 -0.1836045 0.1851497 -0.13895187
000180 69 b6 43 3d 1f e4 fd 3d 18 96 02 be 45 66 b1 3e
       0.04778138 0.12397026 -0.12752569 0.34648338
000190 cf 0b ae be f8 ea 90 bd 4f cf da 3e 51 eb 7f 3e
       -0.33993384 -0.07076067 0.4273629 0.2499211
0001a0 8f e0 2d be 04 2b 88 3d 33 e6 15 3d 57 5e cb bd
       -0.16980194 0.066488296 0.03659649 -0.09930103
0001b0 ab 44 0b 3e 2d 2b 8c be 88 10 8e 3d 2f 46 16 3d
       0.13600414 -0.2737669 0.06936747 0.036688026
0001c0 55 32 81 be da 64 86 bd aa 1b 9c 3e 70 1d 25 bb
       -0.25233713 -0.06562205 0.30489856 -0.0025194548
0001d0 55 a8 a1 3e 0f 0c a8 3e 22 b7 63 be 3d 5d 61 be
       0.3157374 0.328217 -0.22237828 -0.22008224
0001e0 f6 ee 41 be be 1e c2 3d f7 d1 82 bc 40 7d a6 bd
       -0.18938813 0.0947852 -0.01596926 -0.08129358
0001f0 6f c6 b9 3e 3a ad 1e be 97 49 f4 bd 20 4a 2d be
       0.36284205 -0.15495768 -0.11928099 -0.16922808

attention.2.weight f4 [6, 128]
000000 00 c0 bb 3d 27 fe f2 bb e4 a2 13 bc c5 b8 e9 3c
       0.091674805 -0.007415551 -0.009011004 0.028530488
000010 84 9e 15 bc ae 0c a5 bd 03 a8 59 3d 45 f0 a3 bc
       -0.009132031 -0.08059059 0.053138744 -0.02001203
000020 67 37 cd 3c f3 c1 1d 3d e3 40 9c 3d 26 34 8b 3c
       0.025050832 0.038515043 0.07629564 0.01699264
000030 31 d5 9a bc a0 54 1b 3c c3 b5 b4 3d 71 be 69 3b
       -0.018900486 0.009480625 0.08823731 0.003566649
000040 2f 5f f4 3d f8 8b 8e 3d 28 bf 2c bd 59 53 e9 3c
       0.11932217 0.06960291 -0.04217449 0.028482126
000050 65 7a 8b 3c 8f 2d af bd e7 58 9f bd 4e dd 01 be
       0.017026136 -0.085536115 -0.07780629 -0.12682077
000060 a9 2d a7 3c 10 0a 25 3d bb 77 00 3c e5 da 40 3c
       0.020407515 0.0402928 0.007841046 0.0117709385
000070 2e 71 b2 3b c9 8f 6a 3d d5 4e 03 be 59 4d af 3c
       0.005445621 0.05726603 -0.12823041 0.021399187
000080 81 f6 ac bd 6e 19 cc 3d 0c 70 59 3d 53 87 a3 3d
       -0.084454544 0.09965788 0.05308537 0.079847954
000090 45 de 2d bd 38 f8 55 bd 71 dd 6b 3c e8 01 13 bd
       -0.0424483 -0.052238673 0.014396057 -0.03589049
0000a0 44 fe d1 3d a5 86 b7 3d 84 c5 55 bc 27 78 5c 3d
       0.102535754 0.08961228 -0.01304758 0.053825524
0000b0 a9 01 7d 3c a9 77 90 3d ea 99 94 bd 1b be a0 bd
       0.01544229 0.07054073 -0.07255919 -0.0784876
0000c0 91 3e 6f 3d 1b 03 74 bd f2 5b a8 3d a9 43 95 bd
       0.058409277 -0.059573274 0.08220662 -0.07288296
0000d0 c8 ea b0 3c 3a 55 1d bc d5 04 0b 3d bd 4a da bc
       0.021596327 -0.009602839 0.033940155 -0.026646966
0000e0 75 77 d6 bd d3 db 4c 3d 54 a4 96 3d d4 60 1c 3b
       -0.10472003 0.05001433 0.07355562 0.0023861425
0000f0 b7 4f 23 3e 82 42 81 3c a4 bd 34 3d 35 c5 d5 3c
       0.15948378 0.015778784 0.044126168 0.026095012
000100 76 35 63 bc e5 d6 5b bd e5 de 19 3d 26 2d 42 3d
       -0.013867727 -0.053671736 0.037566084 0.04740634
000110 6e c8 6d 3c 00 37 ab 3d a0 36 c0 3d b6 00 a9 3d
       0.014513118 0.083601 0.09385419 0.08252089
000120 57 89 33 bd 93 b6 08 3d f8 d1 e8 ba 85 8e 04 3d
       -0.04383215 0.03337724 -0.0017762771 0.03236248
000130 ec ca c3 bd 21 dd 87 3d 3a 1d 59 3d 41 3a 2e bd
       -0.09560189 0.06633974 0.05300639 -0.042536024
000140 bb 83 6e bd 3b a4 87 3c a8 a5 01 3d 49 3e a7 bc
       -0.058231097 0.016557803 0.031652123 -0.020415442
000150 60 f1 46 bd 10 40 be 3c a2 77 37 bd 3e 30 65 bd
       -0.048570037 0.023223907 -0.044791825 -0.05595421
000160 e7 43 c2 bd 8d 0d f7 3c 2b 67 af bd 57 32 1c bd
       -0.094856076 0.030157829 -0.085645996 -0.038133945
000170 92 a4 a6 3d b3 f0 91 3b 51 93 cc bc ed 58 c6 3c
       0.08136858 0.0044537424 -0.02497259 0.024212325
000180 04 f1 87 bc 40 c9 cd bd 3e 0b 46 3c d2 0f da bb
       -0.016594417 -0.10048151 0.012087641 -0.006654718
000190 72 a6 a4 bc 81 16 15 bb 3e f0 7e bc f2 2e e0 bc
       -0.020098899 -0.002274901 -0.015560208 -0.027366135
0001a0 44 6a da bc 98 9d 3d 3b c6 85 ad bd 18 20 d4 bc
       -0.026662 0.0028933045 -0.08472781 -0.02589421
0001b0 a2 9e b7 39 cb 38 31 bc 71 68 2c 3d b1 53 72 3d
       0.0003502267 -0.010816763 0.04209179 0.059161846
0001c0 65 49 29 3d dd 12 b8 3d 39 47 a6 3c 5b 97 b3 3c
       0.04132976 0.08987973 0.020297633 0.021922758
0001d0 f3 93 17 3d 3e 81 43 3d 6f 79 9b 3b 7c c5 8b 3c
       0.03700633 0.047730677 0.0047447006 0.017061941
0001e0 c8 2c f7 3c a9 5c 5d bd 7b 03 8a 3d 2a fa 70 bc
       0.03017272 -0.054043446 0.06738945 -0.014708081
0001f0 73 23 3c 3c b9 11 4f 3d 12 09 0d 3d e6 4e b9 3d
       0.011483061 0.05055401 0.03443248 0.09048252
000200 92 2e 6f bd e9 38 24 bc cf 79 27 bd e2 35 de bc
       -0.058394022 -0.010023334 -0.04088765 -0.027125303
000210 9f b1 d5 bc 21 e9 98 3d 05 22 7d bd 0b 58 9b 3d
       -0.026085673 0.07466341 -0.06180002 0.07585152
000220 7b 0b e9 bb 10 78 17 39 f7 05 01 3c b8 3d 6b bc
       -0.0071119643 0.00014445209 0.007874957 -0.014357977
000230 3d 9c 28 bd ef 6b 9c bc e4 d5 66 3d f8 40 d7 bc
       -0.041164625 -0.019094435 0.056356326 -0.026276097
000240 e9 b4 40 3d 1c 84 9b bd 1b 85 7d bc 79 3b cf 3c
       0.04704753 -0.07593557 -0.015473629 0.025296913
000250 d8 37 02 bd c1 2b 6b bd bc af dd bd 37 c9 b2 bd
       -0.031791538 -0.057414774 -0.10824534 -0.08729785
000260 1a 15 ed 3d 28 4f 75 3c 76 87 a9 bd 9c f5 d7 bb
       0.115762904 0.014972486 -0.0827779 -0.006590558
000270 fe 1b 99 3b b4 3d b7 3c 35 48 12 bd 29 68 01 3d
       0.0046725264 0.02236829 -0.035713393 0.031593475
000280 b7 e2 01 bc f7 2b 94 3d d8 5c 84 bd 90 bf a6 3c
       -0.007927588 0.07234948 -0.06463021 0.020355016
000290 76 5e ac 3c 42 05 d9 3b 8b aa d7 3b 4a 9d f0 3b
       0.021041136 0.0066229412 0.0065816096 0.007342969
0002a0 5a 7b 87 3d cb e2 df 3d 93 a7 d2 3d dd bc c8 3d
       0.06615324 0.10931929 0.102858685 0.09801648
0002b0 6c ff 2e bd 86 fb 46 bd 08 ce d3 bd dc 39 40 bc
       -0.042724058 -0.048579715 -0.10342032 -0.011732545
0002c0 81 0b e1 ba dd 5c fe bc 3f 65 9d bc 63 be 8f bd
       -0.0017169566 -0.03105014 -0.019213317 -0.07018735
0002d0 10 46 a1 bc 65 72 d8 bd fa a1 c7 3d fd 88 29 3d
       -0.019686729 -0.10568694 0.097476915 0.041390408
0002e0 d6 c3 98 bc c4 9e ec 39 5d c1 aa bc 68 cb 21 3d
       -0.01864807 0.00045131717 -0.020844156 0.039500624
0002f0 94 5f c9 3d 6c 41 d2 3d fb d8 be bb 63 8f 80 3c
       0.09832683 0.102663845 -0.005824206 0.015693372
000300 8a 41 ef 3c f4 e3 31 38 c0 83 af bc 0e 69 ae bd
       0.029206056 4.2412386e-05 -0.021425128 -0.08516131
000310 42 6b 5d 3d 42 4c d1 3d 40 8d 65 3d a2 24 d8 3d
       0.054057367 0.10219623 0.05604291 0.10553862
000320 6b fc 24 3d 1a af be 3d 2f aa fb 3c 44 a1 17 3d
       0.040279787 0.09310742 0.030720798 0.03701903
000330 ee 8c 88 bc 4c 8c c2 bc c6 db 2a 3c 1c f2 43 bc
       -0.016668763 -0.02374854 0.010428375 -0.011959579
000340 51 00 fb 3c 7f 55 27 3d 7f 1b 1c 3d fe 14 13 3d
       0.0306398 0.04085302 0.03811216 0.03590869
000350 f8 b2 68 bd 75 04 e8 bc e1 6f 3e bd 04 40 bd 3b
       -0.056811303 -0.028322438 -0.046493415 0.0057754535
000360 b7 a1 6a 3d ae fa 14 bd fa 51 bf bc b9 1c c0 bc
       0.05728313 -0.03637188 -0.02335452 -0.023451196
000370 72 51 a6 3d e6 c7 05 bd d3 08 04 bd 99 13 31 bd
       0.08121003 -0.03266134 -0.032234978 -0.04323158
000380 ac 42 e4 3c c7 93 b2 3b 18 e9 14 3d 66 36 5a 3d
       0.027863823 0.0054497453 0.036355108 0.053274535
000390 0b 94 19 3d b0 5a 7d 3c 84 10 a1 bd be b2 dc bd
       0.0374947 0.015463516 -0.07864478 -0.1077628
0003a0 29 d6 70 3c 6c b5 67 3b 3f c7 be bc 21 be 33 3d
       0.014699497 0.0035355939 -0.023288367 0.043882493
0003b0 e4 a3 92 bd 86 66 11 bd 70 c9 aa 3c 20 3f 70 bc
       -0.07160166 -0.035498165 0.020848006 -0.014663488
0003c0 fa b5 d8 3d 3b c4 ca bc 58 1f 9d bd dd 2e ea 3a
       0.10581584 -0.024751773 -0.07671994 0.001786675
0003d0 03 d5 45 3d 4b 8e 76 bd fd e6 45 bd 5e f8 de 3d
       0.048298847 -0.060194295 -0.04831599 0.10887216
0003e0 a5 e9 8c 3d 38 38 9e bd c4 ef 8b 3b 9d 1c 0d bd
       0.06880502 -0.077255666 0.0042705256 -0.034451116
0003f0 5b 1a 92 3b 23 f5 69 3c 54 b3 a8 ba ba 51 32 bc
       0.004458708 0.014279637 -0.0012870827 -0.010883743

attention.2.bias f4 [6]
000000 0b d6 39 3c 62 ac 75 bd bd 45 e0 bd 8b 16 d4 bd
       0.011342536 -0.05997885 -0.109508015 -0.10355862
000010 2b af 32 3b a0 7b 93 3d
       0.0027265053 0.07201314

fc1.weight f4 [128, 6]
000000 ab 54 ba be bc a2 83 bd c0 48 db 3d b4 97 a0 3e
       -0.36392722 -0.064275235 0.10707235 0.3136574
000010 98 14 0b 3e 6f a4 18 3e db 6e c3 be ac ad 99 3e
       0.13582075 0.14906476 -0.38170514 0.30015314
000020 3b a8 ad 3e 7f cf 52 3c c1 09 74 3c a3 25 6a be
       0.33917412 0.012866854 0.014894904 -0.2286592
000030 5c 8b 1d be 4c 7c 7e 3d 4e 2d 7e be 44 07 a8 be
       -0.15385193 0.062130257 -0.2482197 -0.32818043
000040 2c ad af 3e af a3 0e be 32 4e 6b 3d 17 0c 4b 3e
       0.34311807 -0.13929628 0.05744762 0.1982883
000050 29 98 8c 3e 60 8a 62 be 27 81 e3 3d 8d 23 9c be
       0.2745984 -0.22123098 0.11108618 -0.30495873
000060 02 fc 9b be c0 31 1f be 3d e0 0d bd 5b 9e 80 3e
       -0.30465704 -0.15546322 -0.03463768 0.25120816
000070 fd f8 f5 3d 38 cf 64 3e da 41 38 be fe 98 bf be
       0.12010381 0.22344673 -0.1799387 -0.3742141
000080 af f5 39 3e 3f 8c 9f be 63 9d 1d be af b6 b5 be
       0.18160127 -0.31161687 -0.1539207 -0.3549094
000090 38 7e 09 bd 49 f3 b6 be 18 9a ac be 25 ca b5 be
       -0.033567637 -0.35732487 -0.33711314 -0.35505787
0000a0 b7 1b ea bd de 56 92 3c 28 81 77 3e cb 6e e3 3d
       -0.114310674 0.017863687 0.24170363 0.111051165
0000b0 42 39 98 be c5 55 e7 3d 24 20 55 3e c2 43 98 be
       -0.29731184 0.11295656 0.20813042 -0.29739195
0000c0 18 0e 23 3e 58 39 17 be d0 f3 69 bc 64 c6 c9 3d
       0.15923345 -0.14767969 -0.014279321 0.09852293
0000d0 af 93 b9 3b 04 3b 5e 3b 9a 6d 2e 3e a5 46 b3 3e
       0.005663357 0.0033909688 0.17033997 0.35014835
0000e0 35 67 17 be 0f b7 93 3e 5b e5 66 3e 3f 39 c0 be
       -0.14785464 0.288506 0.2254843 -0.37543675
0000f0 39 ed 98 bd 39 a0 87 be f7 83 18 3d fa a5 43 bd
       -0.07467122 -0.26489428 0.037235226 -0.04776571
000100 04 7f 55 bd 90 db d3 be df 07 9d be dd 9d 4c be
       -0.052123085 -0.4137845 -0.30670068 -0.19982095
000110 d5 2d a4 bb 92 41 9a be 99 c6 c2 bd 80 cc e3 be
       -0.0050103464 -0.3012815 -0.09510536 -0.4449196
000120 e7 05 bc be d9 a3 b4 3e 7b 7e 80 be 3f 31 ce 3d
       -0.36723253 0.35281256 -0.25096497 0.10067987
000130 87 35 a5 be a6 52 18 3e 8d ed 2c be 13 ef c8 be
       -0.322674 0.14875278 -0.16887493 -0.392449
000140 3f 8c 33 bd 66 fd 33 3d f7 1c 2c 3e 21 8e 9e be
       -0.04383492 0.04394283 0.16807924 -0.3096781
000150 50 02 09 be 38 1b 77 3c 13 26 bf 3d f0 28 38 3e
       -0.13379788 0.015082173 0.09333434 0.17984366
000160 82 51 28 3e 56 d1 de 3d fb d6 8a 3e f1 b5 a0 3d
       0.16437343 0.108797714 0.27117142 0.078472026
000170 d5 b2 88 be 18 50 2d 3d d6 0d 03 3e 3b bd c0 3d
       -0.26698938 0.04231271 0.12798247 0.09411093
000180 d6 f1 81 3d bd b2 14 be b4 f5 b5 3e b1 2d 50 3d
       0.06344955 -0.14521308 0.3553902 0.050824825
000190 7a a6 81 be 71 5c cc bd 6d 40 07 be 87 d3 5d 3a
       -0.25322324 -0.09978569 -0.1320817 0.0008462001
0001a0 72 06 00 3e 09 f1 c6 38 c5 b5 2d bd 9e 1f c2 bb
       0.12502459 9.486272e-05 -0.042409677 -0.005924179
0001b0 dc 97 bf be 2e db a9 3e 28 35 4a 3e 18 e2 32 bc
       -0.37420547 0.33175033 0.1974684 -0.010918163
0001c0 94 00 fe bc 01 31 ac be de e3 fc bd 3e 7e 5c 3e
       -0.031006135 -0.33631137 -0.1234815 0.21532533
0001d0 2d bd 03 3e 30 2d 86 3e d1 00 bf 3e 00 59 12 bd
       0.12865134 0.2620635 0.3730531 -0.03572941
0001e0 02 37 07 be be aa 0a bd 44 f7 85 bc f7 f1 38 3d
       -0.13204578 -0.03385424 -0.016353257 0.04515263
0001f0 e8 03 45 bd b2 fa 8b bb 6e aa fb bd 04 aa 83 be
       -0.04809943 -0.0042718286 -0.12288366 -0.2571565
000200 ef e9 b0 bd 8a 82 89 3e d6 51 31 be 2a ca 8c 3e
       -0.08638369 0.26857406 -0.17316374 0.2749799
000210 42 7e 71 be 99 bf 9c 3d 92 09 11 be 7a 71 96 3c
       -0.2358332 0.07653732 -0.14163807 0.018364657
000220 ce d0 d0 b9 3b c8 e6 3a 7b a9 23 bd af a9 20 bd
       -0.00039828423 0.0017607281 -0.03995655 -0.039224323
000230 f6 dc a3 be 4d a7 25 3e 2d ea db bc 7b b8 d9 3c
       -0.32004517 0.16177101 -0.026845062 0.026577225
000240 b6 cb df bc 4d b9 55 be 31 a1 d8 3c d0 7a 22 3e
       -0.027318817 -0.20871468 0.02644405 0.15867162
000250 93 63 f3 3d f0 ed d4 3d 0e 28 10 3e 4a 65 8d be
       0.11884227 0.103969455 0.1407778 -0.2761634
000260 45 b4 9f 3e e0 4d 12 3e f5 a4 78 3e 66 e5 2b be
       0.31192222 0.1428752 0.24281676 -0.16786727
000270 8c fb 88 b7 10 fd 55 bd 11 a8 91 39 d4 f4 05 39
       -1.6329599e-05 -0.052243292 0.00027781774 0.00012775074
000280 61 f0 ba ba 63 7c 07 b7 fb d6 67 3c 15 d4 35 be
       -0.0014262312 -8.075588e-06 0.014150376 -0.17756684
000290 c7 64 b2 be 8b 80 ec 3d 5b a4 c6 be a2 82 ad bd
       -0.34842512 0.11547955 -0.38797268 -0.08472182
0002a0 3e ca b5 3e a0 27 e4 3c 4b 0e 34 be 2a 5f 23 bd
       0.3550586 0.027850926 -0.17583577 -0.039885677
0002b0 5f e6 a3 be aa 56 a1 be cc 2a 07 3e d0 92 6a 3c
       -0.32011697 -0.31511432 0.1319992 0.014317229
0002c0 f4 a5 1c be 84 15 9a bd d9 b1 bd 3e 64 81 72 3e
       -0.15297681 -0.07523635 0.3704975 0.23682171
0002d0 aa 6f c5 bd c2 d4 76 be a7 42 a6 bd 6b 45 d0 bc
       -0.09640439 -0.24104598 -0.08118182 -0.025423726
0002e0 1a f9 c7 3d a0 2b 07 3e 0f 4e b8 3d 48 ef b3 be
       0.09764309 0.13200235 0.089992635 -0.35143495
0002f0 4e 5c a1 be ee 30 09 bd 25 01 42 3d fd db a1 3e
       -0.31515735 -0.03349393 0.047364373 0.3161315
000300 79 c4 9a 3e dd 4e 35 3e 06 b6 91 3e cc 0b 73 3d
       0.30228022 0.17705865 0.28459185 0.059337422
000310 99 9a ad be c2 ef 55 be d5 69 21 bd f7 cd 74 bc
       -0.3390701 -0.20892242 -0.03940757 -0.014941684
000320 48 2a f9 bd 7c a0 dc bd 88 02 60 bc d8 a6 02 bc
       -0.12166268 -0.107727975 -0.0136724785 -0.007974349
000330 89 48 d4 b9 e4 d7 ce 39 e1 38 82 bd c7 9b f2 bd
       -0.00040489834 0.00039452233 -0.06358505 -0.118461184
000340 f0 b3 13 be f0 00 d2 bc 57 c8 1a bd 64 54 87 be
       -0.1442411 -0.025635213 -0.037788715 -0.26431572
000350 f6 45 b4 be 61 13 de bd 4e 24 3f bd e8 28 aa be
       -0.35209626 -0.1084354 -0.046665482 -0.33234334
000360 e8 46 2f be 7a 71 c2 3d fc 6e 91 3b 78 76 54 3c
       -0.17116892 0.094943 0.004438279 0.012967698
000370 4c c9 3e ba 58 b9 c1 b9 2c 40 c1 3d 19 d5 7e 3e
       -0.00072779204 -0.0003694992 0.09436068 0.24885978
000380 fd 04 7a be 20 39 0a bd 67 2e 3f 3d 29 d6 7e 3e
       -0.24415965 -0.033745885 0.046675112 0.24886383
000390 56 b0 90 be a0 78 06 be 8e b7 42 be f1 3b f7 3d
       -0.28259534 -0.13131952 -0.19015333 0.1207198
0003a0 54 97 ca be 8e 25 83 be 1e 7a 21 3e 60 bd 1c be
       -0.3956858 -0.2561459 0.1576924 -0.15306616
0003b0 a7 e8 d9 3d 24 6e 87 3e 37 6c 8f 3e 6f c6 67 3e
       0.10640078 0.26451218 0.2801225 0.2263429
0003c0 b9 d2 93 3e b9 a1 6b 3d bd ea 30 3e cc eb 5a bd
       0.28871706 0.057527278 0.17277046 -0.05344753
0003d0 de 12 ba 3d 09 16 a2 ba 25 7f 0b be de 00 91 3e
       0.0908563 -0.0012366186 -0.1362272 0.28320974
0003e0 c6 ec ec 3d 29 ef 0b be 6a f7 fd 3d e3 4e cc bd
       0.115685984 -0.13665451 0.12400706 -0.09975984
0003f0 a0 1d 53 3d c2 22 68 be 7b 49 89 3e 68 53 ae be
       0.051541924 -0.22669509 0.26813874 -0.3404801

fc1.bias f4 [128]
000000 07 64 ef bc 02 cc 41 3e 2d 36 83 3e e9 84 04 3e
       -0.029222501 0.18925479 0.2562727 0.12941326
000010 52 1b 72 bb 28 3e 92 3e d0 59 9e 3e 10 a9 97 3e
       -0.0036942554 0.28563046 0.30927896 0.29621172
000020 e3 57 3c be b3 5d 99 3e 18 65 81 3d 00 d4 51 3e
       -0.18392901 0.299543 0.0631811 0.20491028
000030 2e 64 a4 3e 5a 5b 00 be f5 3f 12 3c 21 1a 61 bd
       0.3210768 -0.12534848 0.008926381 -0.05495656
000040 ad 67 19 3e bd 6c 59 be 4c 0b 25 bb 52 3b 65 3d
       0.14980955 -0.21232887 -0.0025183735 0.055964775
000050 92 2e 33 be 1e 4a 39 3e c2 97 42 be 66 96 c6 3e
       -0.17498234 0.1809468 -0.19003204 0.3878662
000060 5c aa 92 3d 73 77 00 be 0b 69 6e bc 1e 4c 86 3e
       0.071614 -0.12545566 -0.014551411 0.26229948
000070 97 b2 bf 3c ed 4f b6 3e 97 ad c9 3b 0b 5e 8c 3e
       0.023400588 0.35607854 0.0061547267 0.274155
000080 70 7c fa 3d a8 9c ec bc be 69 03 be 1d 92 f3 3d
       0.12230766 -0.028883293 -0.12833306 0.11893103
000090 06 1c 41 be 50 90 97 3d 08 8d 51 3e 9a 16 fc 3d
       -0.18858346 0.07400572 0.20463955 0.123089984
0000a0 61 f4 cd 3e a5 d8 86 bd 1e 30 38 3c f5 54 11 bd
       0.4022551 -0.065842904 0.011241941 -0.035481412
0000b0 86 0e 1c be 67 ec d9 bd ff 1f b7 3e d3 50 c6 3b
       -0.15239915 -0.10640793 0.357666 0.0060521155
0000c0 db 14 1b be 5f 7a 14 be 7b e4 8c be 36 f8 12 3e
       -0.15144674 -0.14499806 -0.27518067 0.14352497
0000d0 ae b6 6e 3e 1b 83 7a 3e b7 a6 c0 3b 07 d3 d2 bd
       0.23311874 0.24464075 0.005879249 -0.102941565
0000e0 f0 83 13 be d3 62 92 3d 1a 5d 87 3e 38 69 e4 bd
       -0.14405799 0.071477555 0.26438218 -0.111528814
0000f0 58 67 ee bd 30 0c 32 3e fc 04 29 bc 36 b7 73 3e
       -0.11640805 0.17387462 -0.01031613 0.23800358
000100 da ab b3 3e 40 f7 19 be 1d c7 00 be df 37 7f 3e
       0.3509205 -0.15035725 -0.12575956 0.24923657
000110 36 4e dd 3d f0 59 bb 3e 41 53 b0 3b da f2 08 3d
       0.10805933 0.36592054 0.0053810184 0.033434726
000120 ee 4e c0 3e 23 06 4e 3d b1 e6 99 bd e9 17 b9 3e
       0.3756022 0.05029882 -0.07514704 0.36151055
000130 2e 0c 68 3e b1 d7 80 3e ef 44 e3 bc e3 b1 b5 3d
       0.22660896 0.2516456 -0.027742831 0.0887182
000140 3b 47 49 3e 8b 33 9e 3e 1b f8 5f 3e a6 e1 19 3e
       0.19656079 0.308987 0.21871988 0.15027484
000150 b8 01 65 bd 68 34 f9 bd 00 f5 09 be 79 cc 9d 3e
       -0.055909842 -0.12168199 -0.13472366 0.30820063
000160 3e 92 92 3d 2e 71 c2 bd 8e 19 8c 3e 3c 97 d5 3e
       0.071568 -0.094942436 0.27363247 0.41716945
000170 49 75 e4 3d a4 e5 fd bc 35 0a 2a be 8a 5c 0d 3e
       0.11155183 -0.03099329 -0.16605456 0.13804832
000180 ef 36 b8 bd b2 9d 07 3e 15 74 a7 bc 08 a2 11 be
       -0.08994853 0.1324375 -0.020441094 -0.14221966
000190 2e db 7d be ec 61 39 3e 8c 43 f0 3c 53 76 a7 3e
       -0.24790642 0.1810376 0.029329084 0.32707462
0001a0 52 e5 00 be 6f 7a 05 3e 5e 80 24 bd 42 01 00 be
       -0.12587479 0.13034986 -0.040161483 -0.1250048
0001b0 16 4b 69 bd 63 62 80 3e 0f 7f e9 bd 09 36 a1 3e
       -0.056956373 0.25075063 -0.11401188 0.31486538
0001c0 6f 23 c3 3d cc 1d e6 3d 39 1e 23 bd c0 80 1c bc
       0.09528243 0.11236152 -0.039823744 -0.009552181
0001d0 13 07 9c bd ec 34 89 3d 1e 30 24 3e e5 42 83 3e
       -0.07618537 0.06699547 0.1603398 0.25636974
0001e0 a6 49 46 3e 5a 1a 67 3d d3 e7 9d 3e 52 6b a5 bd
       0.19364032 0.056421615 0.3084093 -0.0807711
0001f0 de 7d 0d be 32 5e 22 be 53 00 25 bc 86 f2 ac 3c
       -0.13817546 -0.15856245 -0.010070878 0.021111738

fc2.weight f4 [128, 128]
000000 7b 17 50 bd bc 68 dd bc 71 b1 8a bd b8 d9 58 3d
       -0.050803643 -0.02702748 -0.067721255 0.052942008
000010 6d 64 59 3d db fe bc 3b cb 5d 6f bd d8 2a 1d 3d
       0.05307429 0.005767686 -0.058439057 0.038370937
000020 69 db 79 bd 34 de 2a bd ed 6c 04 bd 94 5a 51 3d
       -0.06100026 -0.041715816 -0.032330442 0.051111773
000030 77 3a 9a bd 00 79 85 3c d7 e4 76 3d 93 8a 8b bd
       -0.075306825 0.016293049 0.060276832 -0.0681354
000040 f1 04 9a bc 2f 5a 65 3d 7d 26 f3 3c 6e 39 f3 3c
       -0.018801184 0.05599421 0.029681439 0.02969047
000050 3f c0 84 3d 83 db 67 bd 6c b6 b2 3d 5f 86 5b 3d
       0.064819805 -0.056605827 0.087262005 0.053594943
000060 49 a3 74 3c 0b 4b 58 3d 80 08 b6 3d d6 39 26 bd
       0.014931508 0.05280594 0.0888834 -0.0405825
000070 50 e7 6b 3d 7d 55 d6 3b 80 e3 9a 3a 8a 39 4b 3d
       0.057593644 0.0065409527 0.0011817068 0.04961542
000080 87 8c 53 3d cf 96 6b bc 0a ac 20 bd ce 6b 6f 3c
       0.05164769 -0.014379217 -0.03922657 0.014613105
000090 25 dd bd 3d 36 c1 14 bc bb 42 3a bb ef 3c 37 3d
       0.092706956 -0.009079268 -0.0028421122 0.044735845
0000a0 54 d5 4c 3d 5b 97 a3 3c 3b a1 71 3c 50 61 b8 3b
       0.050008133 0.019969633 0.014747913 0.005626835
0000b0 ea cb 20 bd f3 55 66 3d 21 ca b6 bd ec 24 18 3d
       -0.039256968 0.05623431 -0.08925272 0.037144586
0000c0 8a c7 c8 3d fc a8 e5 3b 0f c6 26 3d b5 b9 69 bd
       0.09803684 0.00700867 0.040716227 -0.05706187
0000d0 a4 b0 66 bd 34 4a 12 3d 7d 66 83 3d c4 c3 11 3d
       -0.0563208 0.035715297 0.064160325 0.035587087
0000e0 6a c9 2f 3d 73 50 97 3d 2f cc 7e 3d 83 7e 39 3d
       0.042916693 0.07388391 0.062206443 0.045286667
0000f0 75 e1 5a bd e7 d7 a0 bd 5f 81 cf bc 40 4d 19 bd
       -0.05343767 -0.0785368 -0.025330244 -0.037427187
000100 d6 b4 d4 bc 5d 03 52 3d 57 ec 5a bd 1e 42 b0 bd
       -0.025965136 0.05127274 -0.053448047 -0.08606361
000110 21 54 84 bd 22 52 9d 3d cb 65 87 bc 94 1d 95 3c
       -0.06461359 0.07681681 -0.01652803 0.01820258
000120 79 ec 86 3d 90 31 37 3d 59 90 58 bd 12 9f df bc
       0.06588072 0.044725 -0.052872036 -0.02729753
000130 67 a6 bc bd 4d a8 b4 bc a4 4a e9 3c 1b 39 a3 3d
       -0.09211426 -0.022052908 0.028477974 0.079698764
000140 4f 2d aa 3d 1a 54 8f bb 4e b0 22 bd 61 43 bb bd
       0.08309423 -0.0043740394 -0.03971892 -0.09143711
000150 2f 6a 58 3d 49 21 7b bd 30 2f ee 3c aa fe 03 bd
       0.05283564 -0.06131104 0.029075235 -0.03222529
000160 dd 6b 4a bd 55 ce 5d bd cb 65 4c 3d 75 b0 93 3d
       -0.049419273 -0.05415185 0.049901765 0.07211391
000170 45 b1 e8 bc f8 c3 7b 3d d4 4b be 3c 78 cf 96 3d
       -0.028404841 0.061466187 0.023229517 0.0736379
000180 32 ee 39 3c cd 0d b7 bd 17 3b cd 3d 2b 27 1a 3d
       0.011348294 -0.08938179 0.10021036 0.03763501
000190 db 51 98 3d 9e cd e5 ba fb c0 b4 3d fd 34 3d bd
       0.07437488 -0.0017532592 0.088258706 -0.04619311
0001a0 0b 0d cd bb a8 3d 2b 3d 97 89 7d 3c 18 14 65 bb
       -0.0062576584 0.041806847 0.0154746985 -0.0034954604
0001b0 92 cc 07 3d fb 27 73 3b 6a 24 81 bd a7 45 71 3d
       0.033154078 0.0037102688 -0.063057736 0.058904316
0001c0 c6 24 3a 3d a5 ad 83 3d 0f e7 2f 3b 87 df 74 bc
       0.045445226 0.064296044 0.0026840603 -0.014945871
0001d0 c2 c3 82 bd 24 97 8f 3c ff c7 44 3d 54 f6 9c bb
       -0.06384994 0.017528124 0.048042294 -0.004790107
0001e0 0f cd 95 3b 78 f6 04 3d 8f 72 42 bd e6 78 25 3c
       0.004571564 0.032461613 -0.047472533 0.010099625
0001f0 0b 9b 92 3d 4f 75 6c bd 93 3e 8b bd 63 48 be 3d
       0.07158478 -0.05772906 -0.067990445 0.092911504
000200 5d 36 af bd 5d d6 39 3d 3f 2d 72 3d 9c 9e b2 3d
       -0.08555291 0.04537045 0.05912518 0.087216586
000210 3c f4 61 3d 22 5d a1 3d 01 0a 8d 3d af 1e 3d 3b
       0.05516456 0.07879092 0.06886674 0.00288574
000220 05 30 45 3d 77 56 a1 bd 77 fc e1 3c 25 b6 cb 3d
       0.048141498 -0.0787782 0.027586205 0.09946851
000230 67 a5 dc bc 61 41 a2 bd ec 26 1e bd af 77 09 bd
       -0.026934339 -0.07922626 -0.038611338 -0.033561405
000240 08 c9 af 3d 86 ad 03 bc 40 cb 6c bc 22 9f 13 bd
       0.085832655 -0.008036977 -0.014452755 -0.036040433
000250 ce dc d4 3b ab 4a 10 3d 0f 0c 71 bd 36 59 af bc
       0.0064960485 0.03522746 -0.05884939 -0.021404844
000260 f8 ae d8 3b 7e 8c a3 3d 00 1c af 3d c7 c9 1d bd
       0.006612655 0.07985781 0.085502625 -0.038522508
000270 76 e2 4c bc b6 26 e9 3c 1e 3e dd bc 77 fb c8 bd
       -0.012505164 0.028460842 -0.027007159 -0.09813588
000280 9b 35 bf bc 9c ff a0 3d f7 0a 35 3d 55 06 8a 3d
       -0.02334099 0.078612536 0.04419991 0.06739489
000290 a6 91 7b 3c fa ba e9 3c b3 8d d8 3d 62 75 ce bd
       0.0153545495 0.02853154 0.10573902 -0.10080983
0002a0 ab 37 88 bd cd ed 56 bb dc 6a 72 bc 6f fd 8d bd
       -0.06651243 -0.003279555 -0.014795985 -0.06933104
0002b0 cd 24 de 3c 3e 47 32 3c 40 e2 5a 3d 50 75 3e bd
       0.027117157 0.010881243 0.053438425 -0.046498597
0002c0 1a 9d 0b bd 05 44 df 3a 1c 1a ac bd 57 a8 a4 bc
       -0.03408537 0.0017033821 -0.084034175 -0.020099802
0002d0 e3 66 9b 3c 6e 90 83 bd 8d fb d0 3c 38 7c 89 bd
       0.018969959 -0.06424032 0.025510574 -0.06713146
0002e0 e1 72 43 3c 2a 1d a4 3d d7 5e 33 bc cb 26 9b 3d
       0.011929245 0.08013375 -0.010947905 0.075757585
0002f0 da 78 5a bd 3e a6 01 bd 24 91 37 bd 57 22 c6 bc
       -0.05333791 -0.03165268 -0.04481615 -0.024186296
000300 43 2d 64 bc 27 4a 63 3d 6b ac 83 3a 09 e9 40 3c
       -0.013926807 0.05549064 0.0010045891 0.01177431
000310 b5 25 5e 3d 75 2c 1a bd 9e 2a c3 bd 59 bb b9 bd
       0.05423518 -0.037640054 -0.09529613 -0.09068937
000320 e9 a1 95 bd d3 6f 77 bc c7 a7 15 3b f4 6a 8c 3c
       -0.073062725 -0.015102345 0.0022835599 0.017140843
000330 34 b7 9f bd e8 84 fc 3c 65 bb af 3d fc fe e4 3d
       -0.07798615 0.030825093 0.085806645 0.11181447
000340 79 6d ec 3a 47 c9 99 bb 07 92 e3 bc fb d7 84 b9
       0.0018037996 -0.0046931836 -0.027779592 -0.0002533792
000350 08 74 6a bd f1 ed e7 bc 44 64 49 ba 18 63 45 bc
       -0.057239562 -0.028311701 -0.0007682482 -0.012047552
000360 c1 9a a8 3d 20 7f 07 3b 9f 9d 9c 3c 23 d6 41 3d
       0.08232642 0.0020675138 0.019118128 0.047323357
000370 3d b1 af 3c 67 f9 a3 3d 3d 68 a3 ba 41 20 09 3c
       0.021446818 0.08006554 -0.0012466979 0.008369506
000380 36 4b 5b 3c 29 dc a4 bd 5b 00 82 bd cf 08 9e bb
       0.013384631 -0.08049805 -0.06347724 -0.0048228274
000390 95 6e a2 3d c5 2b 59 bc 35 f8 65 3c 94 47 7d 3c
       0.07931248 -0.013255064 0.014036228 0.01545896
0003a0 94 f7 98 bd fb ed 96 3d 52 ef 2b bd 43 dd a3 bd
       -0.07469097 0.0736961 -0.04197628 -0.08001187
0003b0 0e 2e b4 3d 3e cf 04 bc 29 87 09 3d 03 00 16 3c
       0.08797847 -0.008106051 0.033576164 0.009155276
0003c0 8b d7 52 bd 1a 34 46 3d 4a 3e a1 3d 06 e1 b1 bc
       -0.05147509 0.04838953 0.07873209 -0.021713745
0003d0 de d4 49 bd fb 47 95 3a 0f 33 ad 3b 5f 58 40 3d
       -0.04927527 0.001138925 0.0052856277 0.046959277
0003e0 1d 4b 82 bd f5 6b 3f 3d e1 31 65 3d 32 0d 72 bc
       -0.06361983 0.046733815 0.05595577 -0.014773654
0003f0 87 fe 86 bd cf 91 97 bc 7b 73 43 3b 2a 58 d4 3c
       -0.06591516 -0.018502144 0.002982347 0.025920946

fc2.bias f4 [128]
000000 6e 30 0e 3d a6 41 aa bc 52 b6 58 3d de 8f 27 3d
       0.034714155 -0.020783257 0.05290825 0.040908687
000010 e0 1a 15 bd 40 f6 96 bd 69 a9 8f 3c 9a 9a 15 3d
       -0.036402583 -0.07371187 0.017536836 0.036524393
000020 ea 87 8b 3d 05 bb 8e bc 30 97 58 bd 03 35 95 3d
       0.06813033 -0.017423162 -0.05287856 0.07285502
000030 a4 1a 83 3d a8 90 a9 bc 19 0c af bb 82 f4 87 bd
       0.06401566 -0.02069886 -0.0053420183 -0.06638433
000040 bf f7 98 ba 42 a8 88 3c 12 13 2d 3d 28 97 74 3d
       -0.0011670514 0.016681794 0.042254515 0.059714466
000050 ab c2 67 bd 2f 44 a0 bc 44 ef 80 3d c2 c2 03 3d
       -0.056582134 -0.019563762 0.06295636 0.032168157
000060 1c e7 91 bd 8c 11 cd 3d 4f 25 c9 bc 42 33 41 bc
       -0.07124159 0.100131124 -0.024553923 -0.011792006
000070 b6 ba 36 3d 65 c5 3f 3d 33 1b 90 3d b6 36 a4 bd
       0.044611655 0.04681911 0.07036438 -0.08018248
000080 f7 3c b0 bd a6 fd 4e bd ba ad a1 3d eb 37 04 bd
       -0.08605378 -0.050534867 0.07894464 -0.03227989
000090 4d 71 c1 3d 42 0e 75 bd 3b 43 8f bd 38 89 a8 3d
       0.094454385 -0.05982805 -0.06995245 0.082292974
0000a0 dc f4 7b 3d 40 3c e7 3c a5 74 80 bc 2e f8 cf 3d
       0.061512813 0.028226972 -0.01568062 0.101547584
0000b0 4a 89 76 bd 6b 39 73 bc 5c b5 5b ba 5d 4b c2 3a
       -0.060189523 -0.0148452325 -0.00083812117 0.0014823485
0000c0 0a 08 1b 3d dd 97 83 bd 1c 40 0f 3c ff d6 ce bd
       0.037849464 -0.0642545 0.008743312 -0.10099601
0000d0 3c fd bb 3b dc 39 8c bd 19 de 71 3c 9f ea 0a 3d
       0.005736975 -0.06846973 0.014762425 0.03391516
0000e0 1f 69 55 bd 0c d2 ac bc ac 66 89 3d 14 6c 20 bd
       -0.052102204 -0.021096252 0.06709036 -0.03916557
0000f0 da a2 8b 3d 3f 2b 81 3c 19 80 ab 3d 33 cc 8c 3d
       0.06818171 0.015767692 0.08374042 0.068748854
000100 eb d4 49 3c 99 93 5c bd 0a f8 88 bd 77 ff b1 3c
       0.01231883 -0.053851698 -0.06687935 0.02172826
000110 10 ed 9b 3c f0 4c c6 bd b7 73 59 bd e1 20 73 3d
       0.019033939 -0.096826434 -0.05308887 0.059357528
000120 96 5a a3 3b 74 6d 25 3d 08 06 75 bc 4c 43 32 3c
       0.004985164 0.040387586 -0.014955051 0.010880303
000130 16 13 df bb 78 e7 23 bc 2e 8e 0a bd 23 61 9b 3d
       -0.006807695 -0.010003917 -0.033827 0.07586887
000140 94 b0 5b 3d 67 6f 9a 3b 94 d1 79 bc fb 7e 26 bc
       0.053635195 0.004712987 -0.015247721 -0.01016211
000150 1c 30 c4 bd 4e f4 47 3d f6 2c 22 bd dc b0 b8 3d
       -0.09579489 0.04881697 -0.03959366 0.09018108
000160 ca 28 93 3c 42 b6 50 bd 6e dc a3 3d 1d 19 d3 3c
       0.017963786 -0.050955065 0.08001028 0.02576881
000170 97 d9 8e 3d 3f 7f 91 3d b8 77 3b 3d 16 de 22 3d
       0.06975096 0.071043484 0.04576847 0.03976258
000180 23 5f 62 bd d9 ac aa 3c dd 16 4d bd 68 cd 15 bd
       -0.05526651 0.020834373 -0.050070632 -0.036572844
000190 68 42 e6 bc c0 c1 94 3d 8e d9 69 bc c3 36 3e bd
       -0.028107837 0.072635174 -0.0142730605 -0.046438944
0001a0 00 a7 09 3c bf 37 c2 bd 49 0b 47 bd c4 fc 9f bd
       0.008401632 -0.09483289 -0.048594747 -0.07811883
0001b0 7d 52 82 3d 8b 1b 82 3a 49 00 aa 3d 0c 71 50 bd
       0.0636339 0.0009926421 0.08300836 -0.05088906
0001c0 4f 8f c6 bd 70 97 89 bd e6 d5 8c bc bd 11 0b 3c
       -0.09695303 -0.067183375 -0.017191838 0.008488116
0001d0 09 ef 71 bd 24 34 99 bc 5b 99 12 bb 92 73 aa bc
       -0.059065852 -0.01870162 -0.002236924 -0.020807061
0001e0 9a 67 4d bd 87 1f 8a bd e9 e6 1d 3d e7 46 b0 3c
       -0.05014763 -0.067442946 0.03855029 0.021518184
0001f0 56 c2 f1 bb a9 ed ae 3d e0 c1 88 3c 4c dc 75 3d
       -0.007377903 0.08541424 0.01669401 0.060024545

norm1.weight f4 [128]
000000 28 c6 7b 3f 58 b1 70 3f 71 30 77 3f 48 58 6c 3f
       0.9834924 0.94020605 0.9655829 0.92322206
000010 db 3b 73 3f e6 7c 81 3f cb 1f 79 3f d1 21 77 3f
       0.9501321 1.0116241 0.9731414 0.96535975
000020 c8 74 7b 3f ef e4 76 3f 7e bd 84 3f 2e 49 80 3f
       0.9822507 0.96443075 1.0370328 1.0022333
000030 62 bd 7d 3f e1 9e 79 3f 14 b1 78 3f 48 c1 76 3f
       0.991171 0.97508055 0.971452 0.96388674
000040 90 35 7a 3f 6f 9c 6c 3f e0 98 76 3f d3 43 80 3f
       0.9773798 0.924262 0.9632702 1.0020698
000050 c0 6c 7b 3f ca 1e 72 3f cf a2 7b 3f f1 0a 7c 3f
       0.98212814 0.9457823 0.982953 0.98454195
000060 be 57 7a 3f d7 d3 6e 3f 26 ac 70 3f b3 5b 81 3f
       0.97790134 0.9329199 0.9401268 1.0106109
000070 f0 f5 83 3f bf e9 79 3f 55 b6 7a 3f 32 dd 77 3f
       1.0309429 0.97622293 0.97934467 0.9682189
000080 84 62 83 3f 40 43 74 3f 4e c4 7b 3f 91 ce 79 3f
       1.026444 0.95415115 0.9834641 0.9758082
000090 f9 6f 7b 3f 91 93 7a 3f bd bb 82 3f 3a e9 80 3f
       0.9821773 0.9788142 1.0213543 1.0071175
0000a0 66 33 7c 3f 70 59 6f 3f 6c 7e 7a 3f 96 d7 7d 3f
       0.9851593 0.93495846 0.97849154 0.99157083
0000b0 1c dd 75 3f ef 6a 78 3f ad ab 7b 3f 36 b3 7e 3f
       0.9604051 0.9703817 0.9830883 0.99492204
0000c0 72 fc 71 3f 08 44 74 3f c3 67 7e 3f dc ea 73 3f
       0.94525826 0.9541631 0.9937708 0.9528024
0000d0 49 97 81 3f 83 0a 77 3f a4 47 80 3f 7e 4f 78 3f
       1.0124294 0.96500415 1.0021863 0.96996295
0000e0 10 24 7d 3f b4 4b 75 3f a6 f7 78 3f e8 d3 77 3f
       0.9888315 0.9581864 0.9725288 0.9680772
0000f0 bb 76 73 3f 6e 41 83 3f 96 9d 7a 3f e1 a1 85 3f
       0.95103043 1.0254343 0.9789671 1.0440027
000100 5f 3b 76 3f 45 9b 7e 3f 69 24 7e 3f 69 1d 72 3f
       0.96184343 0.9945567 0.9927431 0.94576126
000110 6f 35 7f 3f 1f df 7c 3f e3 5d 80 3f 9d 75 76 3f
       0.9969091 0.98777956 1.0028652 0.96273214
000120 37 9b 7a 3f c1 96 81 3f 56 7e 77 3f 0e fb 76 3f
       0.9789309 1.0124131 0.9667715 0.9647683
000130 85 fb 83 3f 44 d8 76 3f 53 be 6a 3f 5d 2a 67 3f
       1.0311133 0.96423745 0.9169666 0.90299016
000140 8a 56 83 3f 1a 3a 78 3f 31 21 83 3f 81 e3 61 3f
       1.0260785 0.96963656 1.0244504 0.8823777
000150 31 4a 78 3f 55 1a 75 3f 93 18 7b 3f 2b 27 82 3f
       0.9698821 0.95743304 0.9808437 1.0168203
000160 30 23 74 3f 88 df 77 3f 17 fc 6d 3f 49 89 80 3f
       0.9536619 0.96825457 0.92962784 1.0041896
000170 48 ec 84 3f dc 31 72 3f 6a db 76 3f 8a dd 65 3f
       1.0384607 0.9460733 0.9642855 0.89791167
000180 39 7c 78 3f d8 3f 77 3f 9a 58 72 3f f6 40 6b 3f
       0.9706455 0.9658179 0.94666445 0.91896
000190 ff b4 7d 3f c2 b1 7b 3f 9c 50 72 3f 93 a5 7c 3f
       0.99104303 0.9831811 0.9465425 0.98690146
0001a0 04 e5 70 3f e1 82 84 3f a8 53 7c 3f e0 f7 79 3f
       0.9409945 1.0352441 0.9856515 0.9764385
0001b0 96 1c 7d 3f 42 5d 7a 3f 29 36 7e 3f 9b 31 73 3f
       0.98871744 0.9779855 0.9930139 0.94997567
0001c0 d2 9d 75 3f a2 f7 82 3f 08 dc 77 3f 01 44 79 3f
       0.9594394 1.0231822 0.96820116 0.9736939
0001d0 ea 4f 7b 3f a2 e1 70 3f 3d e7 7d 3f f5 9a 7d 3f
       0.98168814 0.9409429 0.99180967 0.9906457
0001e0 ac b5 84 3f b8 25 80 3f 5f 5a 78 3f e1 cb 71 3f
       1.0367942 1.0011511 0.97012895 0.9445172
0001f0 4d 0b 76 3f af be 73 3f c4 dd 75 3f 36 62 7b 3f
       0.96110994 0.95212835 0.9604151 0.98196733

norm1.bias f4 [128]
000000 17 40 52 3c ff cb 26 bd 92 fe dd bc 68 80 c8 bc
       0.012832663 -0.04072189 -0.027098928 -0.024475291
000010 14 5b d2 3c 78 1f 90 3c a1 a2 86 bc 01 12 aa bc
       0.025678195 0.01759313 -0.01643497 -0.020760538
000020 a0 03 02 3c ef b1 b4 bb fa 81 02 bc 1a ba a3 bc
       0.007935435 -0.0055143754 -0.007965559 -0.019986201
000030 c2 fb e5 bb f7 45 d8 3b db d6 a6 bb 0b d9 c2 3b
       -0.0070185373 0.0066001373 -0.0050915307 0.0059462837
000040 c2 63 06 3c 9e 7a f6 3c e9 19 5d 3c b9 1a 8a 3b
       0.008202495 0.030087765 0.013494947 0.0042146114
000050 57 42 54 bb cf 6f 83 bc bb 57 0e 3c 27 f6 13 bc
       -0.0032388174 -0.016044525 0.008687909 -0.009030855
000060 5c b9 df 3a e8 e7 e7 3c 34 f2 03 3d 5e ee 72 bb
       0.0017068791 0.028308824 0.032213405 -0.0037068347
000070 4c c7 03 3b a4 95 bc bc 5d 39 64 3c 8b 2e ea bc
       0.0020107804 -0.023020573 0.013929692 -0.028586647
000080 74 90 4d bc 0b 6a f2 3c 86 c6 47 3b b3 7f 98 bc
       -0.012546647 0.02959158 0.003048332 -0.01861558
000090 16 87 06 bb b2 cc 49 bc b5 73 8b bc 38 8f 47 bb
       -0.0020527295 -0.01231687 -0.017022947 -0.0030450355
0000a0 44 f5 04 ba fb dd 00 3d 14 48 2e 3b 67 66 70 3b
       -0.0005071948 0.031461697 0.0026593255 0.003668213
0000b0 b3 b5 dd 3c 12 eb 16 3c a8 16 13 bc bb ce d8 bb
       0.02706418 0.009211319 -0.00897757 -0.006616441
0000c0 c9 31 14 3d 18 9f f0 3c 04 62 e8 bb 71 67 55 bc
       0.03618029 0.029372737 -0.0070917625 -0.013025151
0000d0 f4 2c 35 bb 4c cb 5d bc 9c 72 57 3c 0a 75 b5 3c
       -0.0027645202 -0.013537239 0.013149884 0.022150535
0000e0 56 c9 5b bc 51 0b cc 3c 7a 8d c7 b9 4e 92 9c 3b
       -0.013414701 0.02490774 -0.00038061646 0.004778183
0000f0 db 12 0a 3d 1f 2c 35 bc 05 0a 12 3c e1 32 83 3b
       0.03370939 -0.011057883 0.008913522 0.004003868
000100 af 80 d7 bc b9 66 e7 bb a5 d2 4b ba 7e 54 37 bc
       -0.026306478 -0.007061806 -0.0007775224 -0.011189578
000110 f0 35 a6 3b f8 e6 35 bc fc df 23 3c b2 4b ee bb
       0.005072348 -0.0111024305 0.0100021325 -0.007272207
000120 22 57 c9 bc 9b 6d 58 bb 76 f6 ca 3c 7e 9f 51 bb
       -0.024577681 -0.0033024314 0.024775725 -0.0031985934
000130 2f b1 f9 3b 08 0a 01 bd f8 27 04 3d 89 d6 fd 3c
       0.007619999 -0.031503707 0.03226468 0.030986087
000140 e1 32 2f bb ce 01 30 bc 21 c7 62 bc 55 b4 64 bd
       -0.0026733207 -0.010742618 -0.013841421 -0.05583604
000150 a7 4d a8 3c 65 51 bd 3c c1 60 ca 3b 14 92 fa 3b
       0.02054484 0.023110101 0.0061760847 0.0076468084
000160 69 8a e8 3b f0 51 17 3c 95 05 50 bd 3e 8b 87 3c
       0.007096578 0.009235844 -0.050786573 0.016545888
000170 b2 f5 a5 bb 9c c6 76 3c d1 fe 84 3c 5a 84 0b b9
       -0.0050646896 0.015062001 0.016234787 -0.00013305378
000180 33 7c 1c 3c 55 fc 0a 3c 3a d6 bb 3c 6b e3 3f 3d
       0.009551096 0.008483012 0.0229293 0.046847742
000190 c7 84 9d 3b 85 82 9d 3a 91 fb d2 3c 1e 42 47 b9
       0.004807088 0.0012017047 0.025754722 -0.0001900275
0001a0 36 36 11 3d 25 5e ae ba 1e 17 98 39 78 61 40 3c
       0.03545209 -0.0013303204 0.00029008923 0.011741988
0001b0 d9 eb 9c 3b da 5f 60 bc 11 a1 86 bb 72 6a 08 bd
       0.0047888574 -0.013694728 -0.004108556 -0.03330464
0001c0 8a cb 10 bc d0 22 eb bb 2c 8d 5c 3c 2f ea f7 3c
       -0.00883759 -0.007175781 0.013461392 0.030263035
0001d0 f8 6f ae 3b dc a9 dd 3c 3e e2 84 3b 1c 34 e5 ba
       0.0053234063 0.027058534 0.0040552905 -0.0017486843
0001e0 08 7a a1 3b af b9 14 3c 27 1d 5a bc f3 27 98 3c
       0.0049278773 0.009077474 -0.0133126145 0.018573737
0001f0 0b 6d 9f 3c c0 59 d6 3c 2a 2e e2 3c 1e 36 b0 bb
       0.019461175 0.026165843 0.027609903 -0.005377545

norm2.weight f4 [128]
000000 49 10 7b 3f 6b 8a 80 3f 08 9b 78 3f d0 e7 7f 3f
       0.98071724 1.0042242 0.9711156 0.9996309
000010 fa f4 7d 3f 39 d9 81 3f a0 f4 76 3f 7b a8 80 3f
       0.9920193 1.0144416 0.9646702 1.0051416
000020 40 2b 82 3f 27 21 80 3f 02 92 7f 3f 3f 2f 78 3f
       1.0169449 1.0010117 0.99832165 0.9694709
000030 50 6f 77 3f 38 3c 4f 3f d1 0b 79 3f b5 85 73 3f
       0.96654224 0.8095126 0.97283655 0.95125896
000040 8e cd 5d 3f 85 11 7f 3f 62 43 70 3f 44 a7 7b 3f
       0.86641777 0.9963611 0.9385282 0.983021
000050 18 03 79 3f 00 5d 7b 3f 75 8b 81 3f ae 39 81 3f
       0.97270346 0.9818878 1.0120684 1.0095727
000060 c4 ce 67 3f 02 94 86 3f 1f 69 81 3f 01 7b 6b 3f
       0.90549874 1.0513918 1.0110205 0.91984564
000070 a7 b8 76 3f 79 96 77 3f 2a 55 81 3f fe ad 75 3f
       0.9637551 0.9671398 1.0104115 0.95968616
000080 ca c6 73 3f df e1 78 3f de 51 7c 3f 59 b7 70 3f
       0.95225203 0.9721965 0.9856242 0.94029766
000090 c1 b0 7f 3f 6e 4b 79 3f 4a 4b 80 3f a8 96 62 3f
       0.9987908 0.9738072 1.0022976 0.88511133
0000a0 06 59 81 3f 69 35 78 3f 87 bb 83 3f 55 97 83 3f
       1.0105293 0.969565 1.0291604 1.0280558
0000b0 58 a6 77 3f 59 ce 80 3f 37 70 72 3f bd a9 7a 3f
       0.96738195 1.0062972 0.94702476 0.9791525
0000c0 6f fc 76 3f 6a b6 80 3f 0d 80 76 3f 6a e3 7d 3f
       0.96478933 1.0055668 0.9628914 0.9917513
0000d0 67 cb 7a 3f 56 35 79 3f 4c 0c 87 3f 72 aa 76 3f
       0.9796662 0.9734701 1.0550628 0.9635383
0000e0 5a 5f 81 3f 00 4e 80 3f 67 36 76 3f 8d 8b 81 3f
       1.0107224 1.0023804 0.9617676 1.0120713
0000f0 bc ce 52 3f 50 11 7a 3f c8 34 83 3f a9 48 7c 3f
       0.823467 0.97682667 1.0250483 0.9854837
000100 51 1e 80 3f 8a 58 74 3f 99 b3 7c 3f 00 d3 7f 3f
       1.0009252 0.954476 0.98711544 0.99931335
000110 9d 1d 81 3f 15 cb 79 3f fa d1 6b 3f 5c 87 80 3f
       1.0087162 0.97575504 0.92117274 1.0041308
000120 0d 00 82 3f fd 3c 80 3f 0d 5f 7e 3f 2b 28 72 3f
       1.0156265 1.0018612 0.99363786 0.9459254
000130 0e c4 46 3f 02 7a 80 3f 18 c8 78 3f 4b 1d 7f 3f
       0.77642906 1.0037234 0.9718032 0.9965407
000140 04 13 7e 3f be 7e 7f 3f 35 ca 72 3f 4b ad 71 3f
       0.99247766 0.9980277 0.94839793 0.9440505
000150 b7 9c 77 3f 24 c6 76 3f 80 9a 81 3f 90 94 74 3f
       0.967235 0.9639609 1.0125275 0.9553919
000160 4b d6 58 3f 7a fa 75 3f ab f4 80 3f 6e 23 7e 3f
       0.84701985 0.9608532 1.0074667 0.9927281
000170 57 e3 85 3f 73 88 7c 3f 48 4d 7f 3f b7 b5 80 3f
       1.0460004 0.98645705 0.99727297 1.0055455
000180 05 d0 82 3f e7 80 7e 3f 66 f8 78 3f 86 6d 78 3f
       1.0219733 0.9941544 0.97254026 0.9704212
000190 7c d3 74 3f 30 e9 76 3f f5 cf 77 3f 26 c6 85 3f
       0.956352 0.96449566 0.9680169 1.0451095
0001a0 82 f8 7b 3f 4a 77 80 3f 92 eb 81 3f 54 c0 74 3f
       0.9842607 1.0036404 1.0150015 0.9560597
0001b0 26 f0 78 3f 9a e0 50 3f 0d 04 7b 3f 53 a2 78 3f
       0.9724144 0.81592715 0.98053056 0.9712269
0001c0 c6 3b 71 3f df 05 6f 3f fb 73 7e 3f 2b 16 7d 3f
       0.9423183 0.93368334 0.9939572 0.9886195
0001d0 28 d8 84 3f bc d5 7a 3f 61 e6 78 3f 63 1e 7f 3f
       1.0378466 0.9798238 0.9722653 0.9965574
0001e0 34 13 76 3f 73 f3 7e 3f de 88 6a 3f f3 b4 82 3f
       0.9612305 0.99590224 0.9161509 1.0211471
0001f0 d5 9b 76 3f b0 5e 7f 3f d8 bf 7e 3f 9c 38 7c 3f
       0.9633153 0.99753857 0.9951148 0.9852388
